module attributes {torch.debug_module_name = "CldFracNet"} {
  memref.global "private" constant @__constant_72x64xf32 : memref<72x64xf32> = dense<"…"> {alignment = 64 : i64}
  memref.global "private" constant @__constant_72xf32_0 : memref<72xf32> = dense<[… > {alignment = 64 : i64}
  memref.global "private" constant @__constant_64xf32_0 : memref<64xf32> = dense<[… > {alignment = 64 : i64}
  memref.global "private" constant @__constant_72xf32 : memref<72xf32> = dense<[… > {alignment = 64 : i64}
  memref.global "private" constant @__constant_64xf32 : memref<64xf32> = dense<[… > {alignment = 64 : i64}
  memref.global "private" constant @__constant_64x72xf32_0 : memref<64x72xf32> = dense<"…"> {alignment = 64 : i64}
  memref.global "private" constant @__constant_144x64xf32 : memref<144x64xf32> = dense<"…"> {alignment = 64 : i64}
  memref.global "private" constant @__constant_64x72xf32 : memref<64x72xf32> = dense<"…"> {alignment = 64 : i64}
  memref.global "private" @global_seed : memref<i64> = dense<0>
  func.func @forward(%arg0: memref<?x?xf32>, %arg1: memref<?x?xf32>) -> (memref<?x72xf32>, memref<?x72xf32>) {
    %c64 = arith.constant 64 : index
    %c144 = arith.constant 144 : index
    %c72 = arith.constant 72 : index
    %cst = arith.constant 5.000000e-01 : f64
    %cst_0 = arith.constant 1.000000e+00 : f32
    %cst_1 = arith.constant 0.000000e+00 : f32
    %c1 = arith.constant 1 : index
    %c0 = arith.constant 0 : index
    %0 = memref.get_global @__constant_64x72xf32 : memref<64x72xf32>
    %1 = memref.get_global @__constant_144x64xf32 : memref<144x64xf32>
    %2 = memref.get_global @__constant_64x72xf32_0 : memref<64x72xf32>
    %3 = memref.get_global @__constant_64xf32 : memref<64xf32>
    %4 = memref.get_global @__constant_72xf32 : memref<72xf32>
    %5 = memref.get_global @__constant_64xf32_0 : memref<64xf32>
    %6 = memref.get_global @__constant_72xf32_0 : memref<72xf32>
    %7 = memref.get_global @__constant_72x64xf32 : memref<72x64xf32>
    %dim = memref.dim %arg0, %c0 : memref<?x?xf32>
    %dim_2 = memref.dim %arg0, %c1 : memref<?x?xf32>
    %8 = arith.cmpi eq, %dim_2, %c72 : index
    cf.assert %8, "mismatching contracting dimension for torch.aten.mm"
    %alloc = memref.alloc(%dim) {alignment = 64 : i64} : memref<?x64xf32>
    kokkos.range_parallel (%arg2, %arg3) -> (%dim, %c64) {
      memref.store %cst_1, %alloc[%arg2, %arg3] : memref<?x64xf32>
      kokkos.yield
    } {executionSpace = 1 : i64, parallelLevel = 0 : i64}
    %dim_3 = memref.dim %arg0, %c0 : memref<?x?xf32>
    %dim_4 = memref.dim %arg0, %c1 : memref<?x?xf32>
    %9 = arith.muli %dim_3, %c64 : index
    kokkos.sync %arg0 {memorySpace = 1 : i64} : memref<?x?xf32>
    "kokkos.thread_parallel"(%9, %dim_4) ({
    ^bb0(%arg2: index):
      %18 = arith.remui %arg2, %c64 : index
      %19 = arith.divui %arg2, %c64 : index
      %20 = arith.remui %19, %dim_3 : index
      %21 = memref.load %alloc[%20, %18] : memref<?x64xf32>
      %22 = kokkos.range_parallel (%arg3) -> (%dim_4) -> f32 {
        %23 = memref.load %arg0[%20, %arg3] : memref<?x?xf32>
        %24 = memref.load %7[%arg3, %18] : memref<72x64xf32>
        %25 = arith.mulf %23, %24 : f32
        "kokkos.update_reduction"(%25, %21) ({
        ^bb0(%arg4: f32, %arg5: f32):
          %26 = arith.addf %arg4, %arg5 : f32
          kokkos.yield %26 : f32
        }) : (f32, f32) -> ()
        kokkos.yield
      } {executionSpace = 2 : i64, parallelLevel = 3 : i64}
      "kokkos.single"() <{level = 1 : i64}> ({
        memref.store %22, %alloc[%20, %18] : memref<?x64xf32>
        kokkos.yield
      }) : () -> ()
      kokkos.yield
    }) : (index, index) -> ()
    kokkos.range_parallel (%arg2, %arg3) -> (%dim, %c64) {
      %18 = memref.load %alloc[%arg2, %arg3] : memref<?x64xf32>
      %19 = memref.load %3[%arg3] : memref<64xf32>
      %20 = arith.addf %18, %19 : f32
      memref.store %20, %alloc[%arg2, %arg3] : memref<?x64xf32>
      kokkos.yield
    } {executionSpace = 1 : i64, parallelLevel = 0 : i64}
    kokkos.range_parallel (%arg2, %arg3) -> (%dim, %c64) {
      %18 = memref.load %alloc[%arg2, %arg3] : memref<?x64xf32>
      %19 = arith.cmpf ugt, %18, %cst_1 : f32
      %20 = arith.select %19, %18, %cst_1 : f32
      memref.store %20, %alloc[%arg2, %arg3] : memref<?x64xf32>
      kokkos.yield
    } {executionSpace = 1 : i64, parallelLevel = 0 : i64}
    %alloc_5 = memref.alloc(%dim) {alignment = 64 : i64} : memref<?x72xf32>
    kokkos.range_parallel (%arg2, %arg3) -> (%dim, %c72) {
      memref.store %cst_1, %alloc_5[%arg2, %arg3] : memref<?x72xf32>
      kokkos.yield
    } {executionSpace = 1 : i64, parallelLevel = 0 : i64}
    %10 = arith.muli %dim, %c72 : index
    "kokkos.thread_parallel"(%10, %c64) ({
    ^bb0(%arg2: index):
      %18 = arith.remui %arg2, %c72 : index
      %19 = arith.divui %arg2, %c72 : index
      %20 = arith.remui %19, %dim : index
      %21 = memref.load %alloc_5[%20, %18] : memref<?x72xf32>
      %22 = kokkos.range_parallel (%arg3) -> (%c64) -> f32 {
        %23 = memref.load %alloc[%20, %arg3] : memref<?x64xf32>
        %24 = memref.load %2[%arg3, %18] : memref<64x72xf32>
        %25 = arith.mulf %23, %24 : f32
        "kokkos.update_reduction"(%25, %21) ({
        ^bb0(%arg4: f32, %arg5: f32):
          %26 = arith.addf %arg4, %arg5 : f32
          kokkos.yield %26 : f32
        }) : (f32, f32) -> ()
        kokkos.yield
      } {executionSpace = 2 : i64, parallelLevel = 3 : i64}
      "kokkos.single"() <{level = 1 : i64}> ({
        memref.store %22, %alloc_5[%20, %18] : memref<?x72xf32>
        kokkos.yield
      }) : () -> ()
      kokkos.yield
    }) : (index, index) -> ()
    kokkos.range_parallel (%arg2, %arg3) -> (%dim, %c72) {
      %18 = memref.load %alloc_5[%arg2, %arg3] : memref<?x72xf32>
      %19 = memref.load %4[%arg3] : memref<72xf32>
      %20 = arith.addf %18, %19 : f32
      memref.store %20, %alloc_5[%arg2, %arg3] : memref<?x72xf32>
      kokkos.yield
    } {executionSpace = 1 : i64, parallelLevel = 0 : i64}
    %alloc_6 = memref.alloc(%dim) {alignment = 64 : i64} : memref<?x72xf32>
    kokkos.range_parallel (%arg2, %arg3) -> (%dim, %c72) {
      %18 = memref.load %alloc_5[%arg2, %arg3] : memref<?x72xf32>
      %19 = arith.negf %18 : f32
      %20 = math.exp %19 : f32
      %21 = arith.addf %20, %cst_0 : f32
      %22 = arith.divf %cst_0, %21 : f32
      memref.store %22, %alloc_6[%arg2, %arg3] : memref<?x72xf32>
      kokkos.yield
    } {executionSpace = 1 : i64, parallelLevel = 0 : i64}
    %alloc_7 = memref.alloc(%dim) {alignment = 64 : i64} : memref<?x72xi1>
    kokkos.range_parallel (%arg2, %arg3) -> (%dim, %c72) {
      %18 = memref.load %alloc_6[%arg2, %arg3] : memref<?x72xf32>
      %19 = arith.extf %18 : f32 to f64
      %20 = arith.cmpf ogt, %19, %cst : f64
      memref.store %20, %alloc_7[%arg2, %arg3] : memref<?x72xi1>
      kokkos.yield
    } {executionSpace = 1 : i64, parallelLevel = 0 : i64}
    kokkos.range_parallel (%arg2, %arg3) -> (%dim, %c72) {
      %18 = memref.load %alloc_7[%arg2, %arg3] : memref<?x72xi1>
      %19 = arith.uitofp %18 : i1 to f32
      memref.store %19, %alloc_5[%arg2, %arg3] : memref<?x72xf32>
      kokkos.yield
    } {executionSpace = 1 : i64, parallelLevel = 0 : i64}
    kokkos.range_parallel (%arg2, %arg3) -> (%dim, %c72) {
      %18 = memref.load %alloc_5[%arg2, %arg3] : memref<?x72xf32>
      %19 = memref.load %alloc_6[%arg2, %arg3] : memref<?x72xf32>
      %20 = arith.subf %18, %19 : f32
      memref.store %20, %alloc_5[%arg2, %arg3] : memref<?x72xf32>
      kokkos.yield
    } {executionSpace = 1 : i64, parallelLevel = 0 : i64}
    kokkos.range_parallel (%arg2, %arg3) -> (%dim, %c72) {
      %18 = memref.load %alloc_5[%arg2, %arg3] : memref<?x72xf32>
      %19 = memref.load %alloc_6[%arg2, %arg3] : memref<?x72xf32>
      %20 = arith.addf %18, %19 : f32
      memref.store %20, %alloc_5[%arg2, %arg3] : memref<?x72xf32>
      kokkos.yield
    } {executionSpace = 1 : i64, parallelLevel = 0 : i64}
    %dim_8 = memref.dim %arg1, %c0 : memref<?x?xf32>
    %dim_9 = memref.dim %arg1, %c1 : memref<?x?xf32>
    %11 = arith.addi %dim_9, %c72 : index
    %alloc_10 = memref.alloc(%dim_8, %11) {alignment = 64 : i64} : memref<?x?xf32>
    %dim_11 = memref.dim %arg1, %c1 : memref<?x?xf32>
    %dim_12 = memref.dim %arg1, %c0 : memref<?x?xf32>
    %dim_13 = memref.dim %arg1, %c1 : memref<?x?xf32>
    %alloc_14 = memref.alloc(%dim_8, %11) {alignment = 64 : i64} : memref<?x?xf32>
    memref.copy %alloc_10, %alloc_14 : memref<?x?xf32> to memref<?x?xf32>
    %12 = arith.addi %dim_9, %c72 : index
    %reinterpret_cast = memref.reinterpret_cast %alloc_14 to offset: [0], sizes: [%dim_12, %dim_13], strides: [%12, 1] : memref<?x?xf32> to memref<?x?xf32, strided<[?, 1]>>
    memref.copy %arg1, %reinterpret_cast : memref<?x?xf32> to memref<?x?xf32, strided<[?, 1]>>
    %alloc_15 = memref.alloc(%dim_8, %11) {alignment = 64 : i64} : memref<?x?xf32>
    memref.copy %alloc_14, %alloc_15 : memref<?x?xf32> to memref<?x?xf32>
    %13 = arith.addi %dim_9, %c72 : index
    %reinterpret_cast_16 = memref.reinterpret_cast %alloc_15 to offset: [%dim_11], sizes: [%dim, 72], strides: [%13, 1] : memref<?x?xf32> to memref<?x72xf32, strided<[?, 1], offset: ?>>
    memref.copy %alloc_5, %reinterpret_cast_16 : memref<?x72xf32> to memref<?x72xf32, strided<[?, 1], offset: ?>>
    %dim_17 = memref.dim %arg1, %c0 : memref<?x?xf32>
    %dim_18 = memref.dim %arg1, %c1 : memref<?x?xf32>
    %14 = arith.addi %dim_18, %c72 : index
    %15 = arith.cmpi eq, %14, %c144 : index
    cf.assert %15, "mismatching contracting dimension for torch.aten.mm"
    %alloc_19 = memref.alloc(%dim_17) {alignment = 64 : i64} : memref<?x64xf32>
    kokkos.range_parallel (%arg2, %arg3) -> (%dim_17, %c64) {
      memref.store %cst_1, %alloc_19[%arg2, %arg3] : memref<?x64xf32>
      kokkos.yield
    } {executionSpace = 1 : i64, parallelLevel = 0 : i64}
    %16 = arith.muli %dim_8, %c64 : index
    "kokkos.thread_parallel"(%16, %11) ({
    ^bb0(%arg2: index):
      %18 = arith.remui %arg2, %c64 : index
      %19 = arith.divui %arg2, %c64 : index
      %20 = arith.remui %19, %dim_8 : index
      %21 = memref.load %alloc_19[%20, %18] : memref<?x64xf32>
      %22 = kokkos.range_parallel (%arg3) -> (%11) -> f32 {
        %23 = memref.load %alloc_15[%20, %arg3] : memref<?x?xf32>
        %24 = memref.load %1[%arg3, %18] : memref<144x64xf32>
        %25 = arith.mulf %23, %24 : f32
        "kokkos.update_reduction"(%25, %21) ({
        ^bb0(%arg4: f32, %arg5: f32):
          %26 = arith.addf %arg4, %arg5 : f32
          kokkos.yield %26 : f32
        }) : (f32, f32) -> ()
        kokkos.yield
      } {executionSpace = 2 : i64, parallelLevel = 3 : i64}
      "kokkos.single"() <{level = 1 : i64}> ({
        memref.store %22, %alloc_19[%20, %18] : memref<?x64xf32>
        kokkos.yield
      }) : () -> ()
      kokkos.yield
    }) : (index, index) -> ()
    kokkos.range_parallel (%arg2, %arg3) -> (%dim_17, %c64) {
      %18 = memref.load %alloc_19[%arg2, %arg3] : memref<?x64xf32>
      %19 = memref.load %5[%arg3] : memref<64xf32>
      %20 = arith.addf %18, %19 : f32
      memref.store %20, %alloc_19[%arg2, %arg3] : memref<?x64xf32>
      kokkos.yield
    } {executionSpace = 1 : i64, parallelLevel = 0 : i64}
    kokkos.range_parallel (%arg2, %arg3) -> (%dim_17, %c64) {
      %18 = memref.load %alloc_19[%arg2, %arg3] : memref<?x64xf32>
      %19 = arith.cmpf ugt, %18, %cst_1 : f32
      %20 = arith.select %19, %18, %cst_1 : f32
      memref.store %20, %alloc_19[%arg2, %arg3] : memref<?x64xf32>
      kokkos.yield
    } {executionSpace = 1 : i64, parallelLevel = 0 : i64}
    %alloc_20 = memref.alloc(%dim_17) {alignment = 64 : i64} : memref<?x72xf32>
    kokkos.range_parallel (%arg2, %arg3) -> (%dim_17, %c72) {
      memref.store %cst_1, %alloc_20[%arg2, %arg3] : memref<?x72xf32>
      kokkos.yield
    } {executionSpace = 1 : i64, parallelLevel = 0 : i64}
    %17 = arith.muli %dim_17, %c72 : index
    "kokkos.thread_parallel"(%17, %c64) ({
    ^bb0(%arg2: index):
      %18 = arith.remui %arg2, %c72 : index
      %19 = arith.divui %arg2, %c72 : index
      %20 = arith.remui %19, %dim_17 : index
      %21 = memref.load %alloc_20[%20, %18] : memref<?x72xf32>
      %22 = kokkos.range_parallel (%arg3) -> (%c64) -> f32 {
        %23 = memref.load %alloc_19[%20, %arg3] : memref<?x64xf32>
        %24 = memref.load %0[%arg3, %18] : memref<64x72xf32>
        %25 = arith.mulf %23, %24 : f32
        "kokkos.update_reduction"(%25, %21) ({
        ^bb0(%arg4: f32, %arg5: f32):
          %26 = arith.addf %arg4, %arg5 : f32
          kokkos.yield %26 : f32
        }) : (f32, f32) -> ()
        kokkos.yield
      } {executionSpace = 2 : i64, parallelLevel = 3 : i64}
      "kokkos.single"() <{level = 1 : i64}> ({
        memref.store %22, %alloc_20[%20, %18] : memref<?x72xf32>
        kokkos.yield
      }) : () -> ()
      kokkos.yield
    }) : (index, index) -> ()
    kokkos.range_parallel (%arg2, %arg3) -> (%dim_17, %c72) {
      %18 = memref.load %alloc_20[%arg2, %arg3] : memref<?x72xf32>
      %19 = memref.load %6[%arg3] : memref<72xf32>
      %20 = arith.addf %18, %19 : f32
      memref.store %20, %alloc_20[%arg2, %arg3] : memref<?x72xf32>
      kokkos.yield
    } {executionSpace = 1 : i64, parallelLevel = 0 : i64}
    return %alloc_5, %alloc_20 : memref<?x72xf32>, memref<?x72xf32>
  }
}

